…
ata. When using a pretrained model as we are with the codegen model, it is often unnecessary to adjust all of the nodes, especially the nodes closer to the input.\n\nfrom torchinfo import summary\n\nsummary(model, input_size=(1, 128), dtypes=[torch.long])\n\n====================================================================================================\nLayer (type:depth-idx)                             Output Shape              Param #\n====================================================================================================\nCodeGenForCausalLM                                 [1, 16, 128, 64]          --\n├─CodeGenModel: 1-1                                [1, 16, 128, 64]          --\n│    └─Embedding: 2-1                              [1, 128, 1024]            52,428,800\n│    └─Dropout: 2-2                                [1, 128, 1024]            --\n│    └─ModuleList: 2-3                             --                        --\n│    │    └─CodeGenBlock: 3-1                      [1, 128, 1024]            12,590,080\n│    │    └─CodeGenBlock: 3-2                      [1, 128, 1024]            12,590,080\n│    │    └─CodeGenBlock: 3-3                      [1, 128, 1024]            12,590,080\n│    │    └─CodeGenBlock: 3-4                      [1, 128, 1024]            12,590,080\n│    │    └─CodeGenBlock: 3-5                      [1, 128, 1024]            12,590,080\n│    │    └─CodeGenBlock: 3-6                      [1, 128, 1024]            12,590,080\n│    │    └─CodeGenBlock: 3-7                      [1, 128, 1024]            12,590,080\n│    │    └─CodeGenBlock: 3-8                      [1, 128, 1024]            12,590,080\n│    │    └─CodeGenBlock: 3-9                      [1, 128, 1024]            12,590,080\n│    │    └─CodeGenBlock: 3-10                     [1, 128, 1024]            12,590,080\n│    │    └─CodeGenBlock: 3-11                     [1, 128, 1024]            12,590,080\n│    │    └─CodeGenBlock: 3-12                     [1, 128, 1024]            12,590,080\n│    │    └─CodeGenBlock: 3-13                     [1, 128, 1024]            12,590,080\n│    │    └─CodeGenBlock: 3-14                     [1, 128, 1024]            12,590,080\n│    │    └─CodeGenBlock: 3-15                     [1, 128, 1024]            12,590,080\n│    │    └─CodeGenBlock: 3-16                     [1, 128, 1024]            12,590,080\n│    │    └─CodeGenBlock: 3-17                     [1, 128, 1024]            12,590,080\n│    │    └─CodeGenBlock: 3-18                     [1, 128, 1024]            12,590,080\n│    │    └─CodeGenBlock: 3-19                     [1, 128, 1024]            12,590,080\n│    │    └─CodeGenBlock: 3-20                     [1, 128, 1024]            12,590,080\n│    └─LayerNorm: 2-4                              [1, 128, 1024]            2,048\n├─Linear: 1-2                                      [1, 128, 51200]           52,480,000\n====================================================================================================\nTotal params: 356,712,448\nTrainable params: 356,712,448\nNon-trainable params: 0\nTotal mult-adds (Units.MEGABYTES): 356.71\n====================================================================================================\nInput size (MB): 0.00\nForward/backward pass size (MB): 264.24\nParams size (MB): 1426.85\nEstimated Total Size (MB): 1691.09\n====================================================================================================\n\n\nCodeGen-350M Architecture:\nCodeGenForCausalLM [1, 16, 128, 64] – ├─CodeGenModel: 1-1 [1, 16, 128, 64] – │ └─Embedding: 2-1 [1, 128, 1024] 52,428,800 │ └─Dropout: 2-2 [1, 128, 1024] – │ └─ModuleList: 2-3 – – │ │ └─CodeGenBlock: 3-1 [1, 128, 1024] 12,590,080 │ │ └─CodeGenBlock: 3-2 [1, 128, 1024] 12,590,080 │ │ └─CodeGenBlock: 3-3 [1, 128, 1024] 12,590,080 │ │ └─CodeGenBlock: 3-4 [1, 128, 1024] 12,590,080 │ │ └─CodeGenBlock: 3-5 [1, 128, 1024] 12,590,080 │ │ └─CodeGenBlock: 3-6 [1, 128, 1024] 12,590,080 │ │ └─CodeGenBlock: 3-7 [1, 128, 1024] 12,590,080 │ │ └─CodeGenBlock: 3-8 [1, 128, 1024] 12,590,080 │ │ └─CodeGenBlock: 3-9 [1, 128, 1024] 12,590,080 │ │ └─CodeGenBlock: 3-10 [1, 128, 1024] 12,590,080 │ │ └─CodeGenBlock: 3-11 [1, 128, 1024] 12,590,080 │ │ └─CodeGenBlock: 3-12 [1, 128, 1024] 12,590,080 │ │ └─CodeGenBlock: 3-13 [1, 128, 1024] 12,590,080 │ │ └─CodeGenBlock: 3-14 [1, 128, 1024] 12,590,080 │ │ └─CodeGenBlock: 3-15 [1, 128, 1024] 12,590,080 │ │ └─CodeGenBlock: 3-16 [1, 128, 1024] 12,590,080 │ │ └─CodeGenBlock: 3-17 [1, 128, 1024] 12,590,080 │ │ └─CodeGenBlock: 3-18 [1, 128, 1024] 12,590,080 │ │ └─CodeGenBlock: 3-19 [1, 128, 1024] 12,590,080 │ │ └─CodeGenBlock: 3-20 [1, 128, 1024] 12,590,080 │ └─LayerNorm: 2-4 [1, 128, 1024] 2,048 ├─Linear: 1-2 [1, 128, 51200] 52,480,000\nLooking at the model, we can see that after the input and dropout layers, there are 20 layers of transformation nodes. These layers will have already been tuned by the developers of the model, so we can freeze some of these layers to save us time and resources. For now, we will freeze the first half (10) transformation layers as well as the input embedding layer.\n# Freeze the embedding layer\nf
…
